rl_sar/policy/go2/himloco/policy.pt (torch, 991982 bytes, 14 tensors)

weight f4 [512, 64]
00000000: 53d8 0ebe 4838 d4bd fcc8 afbe 3e65 d0bd
00000010: 2e4a a4bc 6a31 9a3e 0fd7 cf3d 50f6 9ebd
00000020: 726a 343c 4091 943e 69de c1be 48c8 1b3e
00000030: 8535 52bf bf42 4dbe 0985 1bbf beae 07be
00000040: 0e28 2abf b1a1 503e 4d22 cabd 6246 0fbe
00000050: af9c 4cbc 6205 aebe be6a a3bd 40b3 883d
00000060: 4b49 81bd c004 933e c7ba 88be d6a0 3abd
00000070: ecf7 fb3c d074 48be 0e16 a8bd c67e 733c
00000080: 42c6 923d 19be ce3a a474 803d f443 2fbc
00000090: b2c1 f03d 489d 7ebd 69eb 1a3e 91ec 9cbb
000000a0: 1833 92bd 06c2 1bbd 7625 b43d 4825 943d
000000b0: 92d0 783d 62e7 893e ee52 053e 7540 32bd
000000c0: 234b 69be a484 ad39 ed02 a83c 8fdc 5cbe
000000d0: 5dd3 c13b c40b 3f3b 7221 febd b6af e5bd
000000e0: 8715 383e e5ba ef3d 1230 e73c 0ba4 2a3e
000000f0: dc0f dbbd 2f33 1dbd 8c92 43bd c470 0bbb
00000100: 6440 8dbd 116f ebbd 9b2f 673f 212b 1a3d
00000110: 6beb 483d 17f0 97be b548 d6be faf0 1b3d
00000120: 4232 023f 3428 81bb 8eeb 0cbf 13ae 1f3e
00000130: 1052 d43e 3d8c cebe bcb4 64be 0afd 303d
00000140: 4008 c83d 181a 303e 9ad1 5d3e 7c1d 4cbe
00000150: 37d9 e83d d945 0dbd 839a 69be fe75 17be
00000160: 6db0 70be 46fb abbe 4093 543e 24f5 44bf
00000170: d3be 913d ec6c fb3d c911 963e 4875 95bb
00000180: c2d1 cdbd a73c b73d 9b20 42be 422f 0fbd
00000190: 33ad fa3d a681 e0bc 4db7 8b3d a1c5 7abd
000001a0: bf94 53be 043a 9b3d e832 d53d 1ccc 1e3d
000001b0: 0222 2fbe 62de 863d 5e1f 183e 840c ac3d
000001c0: bc59 033d a2db 62be 3f3c 1abe 0d1f 7cbc
000001d0: 90e3 853c 664b c4bd 299a dcbd 42d9 10bc
000001e0: 081a 293e 1f43 633c de99 b53d 02b8 253e
000001f0: 6300 9439 03b5 493d 6d3c 88bd 7579 4ebd
00000200: 4174 1cbd 5ac0 733e b568 06bf 7ee7 c43e
00000210: 9589 e3bc 3e18 303d b43f 1dbe 5fba 62be
00000220: 6e87 84bb 3104 79bc b3f6 af3e 4333 893e
00000230: a7ea 613f 59fe 3fbe 2278 41bd 6002 c43c
00000240: bbef 8f3f 9fd2 0cbe 1fa8 963e 62ec c8bd
00000250: a530 413d 3a56 f93e b44f 2dbd 4950 babd
00000260: 260d f93d 21de 0ebf 0c24 0dbe e396 963e
00000270: 0cb0 c2bc 7da3 593c b313 183f 01b6 f1bd
00000280: 8869 013d be52 3ebd b427 d23c 8658 f5bc
00000290: aac2 833d 498c 8dbd 7c0a 883d 855e e63d
000002a0: 549f cc3d 3de6 afbd aa74 68bd 6be3 6dbd
000002b0: 797d 66bd 953c 09be 12a2 7ebe d6e8 6b3d
000002c0: 0343 163e ec38 f8bd b978 203e bbb9 253e
000002d0: 8c7a 36bc 760c 5c3d b7f2 1ebe 134f 243e
000002e0: 055f 1dbd b0fa c1bd 7efc 8d3e 1db8 dcbc
000002f0: 949d 8a3c de15 7c3c ab3a 15be bcb9 12be
00000300: 5841 313f 5baa 48bf 11dc 3a3e d5e1 37be
00000310: 5b7d 36be af62 a6be a4f9 1abf 6d1f 413f
00000320: f2b5 103b 37e6 473e 1f89 b4be 1241 11be
00000330: 442d e4be 8104 a9bd 09d2 92be 2394 433d
00000340: 0b39 06be b85b 9e3d 855d aa3e 48b6 f03d
00000350: cb02 90bd 83a6 2cbe f5d7 103d 5d3e febd
00000360: 8fd6 dcbd 3196 9bbd 3cd6 663e be48 94be
00000370: 8e76 4ebe 37f2 74be 44fa 40be 0186 66be
00000380: c569 1fbe 4041 85bd 0786 173d 8615 d7ba
00000390: 86af a33c bfeb 63bc 17d5 3bbd 7fa2 c4bd
000003a0: b9e8 a83d b46c 09bd 2941 a73c b97f f53b
000003b0: c496 683d 7c79 19bf 9f04 133f 23db 193d
000003c0: cc5c 1fbe 14b3 d73d e182 133d 5334 4f3d
000003d0: 054c 53bd 7a9c c9bd f59a 8cbd c684 d8bb
000003e0: 57ea 503c 0dbb 9c3e f7ce 4cbd 0070 813d
000003f0: db31 41bd 30b5 0fbe 2cf1 f03d 90dd b5bc
-0.13949709 -0.10362297 -0.34333026 -0.101755604 -0.020054903 0.30115825 0.10148441 -0.07761824
0.011011707 0.29017067 -0.37864998 0.1521312 -0.82112914 -0.20044993 -0.6074987 -0.13250253
-0.6646737 0.2037418 -0.098698236 -0.13991693 -0.012488528 -0.33988482 -0.07979344 0.06674814
-0.06312808 0.2871456 -0.26705 -0.04556354 0.030757867 -0.1957581 -0.082073316 0.014861768
0.07166721 0.0015773206 0.062722474 -0.010697354 0.117556944 -0.062161714 0.15128864 -0.004788943
-0.071386516 -0.038026832 0.087962076 0.07233673 0.060745783 0.26934344 0.13019916 -0.043518502
-0.22782569 0.00033095956 0.020509208 -0.21568511 0.005915089 0.00291513 -0.12408723 -0.11215155
0.17976962 0.11705569 0.028221164 0.1666414 -0.10696384 -0.03837889 -0.04774718 -0.002127693
-0.06897047 -0.114957936 0.90307015 0.037638787 0.049052637 -0.29675362 -0.41852346 0.03807161
0.5085794 -0.00394156 -0.5504693 0.15593748 0.4146886 -0.40341368 -0.2233457 0.043210067
0.097671986 0.17197454 0.21661988 -0.19933122 0.113695554 -0.03449044 -0.22812848 -0.14791104
-0.23504801 -0.33590144 0.20759296 -0.76936555 0.07116475 0.122766346 0.29310444 -0.0045611
-0.10049774 0.089471154 -0.1895775 -0.034957178 0.122400664 -0.027405571 0.06822071 -0.06122363
-0.20662211 0.07579425 0.104101 0.038768873 -0.17102817 0.06585385 0.14855716 0.08400825
0.032068 -0.22154096 -0.15062045 -0.015388262 0.016343862 -0.095846936 -0.10771591 -0.008840861
0.16513836 0.013870983 0.088672385 0.16183475 0.00028229048 0.04924489 -0.0665215 -0.0504088
-0.038196806 0.23803845 -0.5250352 0.38457865 -0.027775565 0.04299187 -0.15356332 -0.22141407
-0.004044465 -0.015198753 0.34367904 0.26796922 0.88248676 -0.1874937 -0.04723371 0.023926914
1.1245035 -0.1375222 0.2942514 -0.098107114 0.04716553 0.48698598 -0.04231234 -0.090973444
0.12160711 -0.5580769 -0.13783282 0.29411992 -0.023765586 0.013283608 0.5940506 -0.118022926
0.031594783 -0.046465628 0.025653698 -0.029949438 0.064336136 -0.06911523 0.06642625 0.11248497
0.09991327 -0.08588836 -0.056751885 -0.05807821 -0.056272004 -0.13402016 -0.24866512 0.057595097
0.14674 -0.12120232 0.15671052 0.16184132 -0.011137616 0.05372282 -0.15522276 0.1604579
-0.038420696 -0.09471643 0.277317 -0.02694326 0.016920842 0.015386073 -0.14573161 -0.14328665
0.6924033 -0.7838494 0.18248011 -0.17957242 -0.17821257 -0.32497165 -0.6053717 0.75438577
0.0022081104 0.19521414 -0.35260865 -0.14184979 -0.44565785 -0.08252812 -0.2867587 0.047748696
-0.13107698 0.07732338 0.33274475 0.117535174 -0.07031783 -0.16860394 0.035362203 -0.124142386
-0.10783111 -0.07597006 0.22542661 -0.28961748 -0.20162413 -0.23920523 -0.18845469 -0.22512056
-0.15567692 -0.06506586 0.036993053 -0.0016409613 0.019981157 -0.013911187 -0.045857515 -0.09601306
0.08247513 -0.033550933 0.020416813 0.0074920324 0.056784406 -0.59950995 0.57428926 0.0375625
-0.15562743 0.10532203 0.036013488 0.05058701 -0.05158617 -0.09844299 -0.06865493 -0.0066076247
0.0127511835 0.30611458 -0.050002065 0.063201904 -0.047166687 -0.14033961 0.1176475 -0.022200376

bias f4 [512]
00000000: 1de4 30be 08fc 29be dd32 ddbe 891d 573d
00000010: 6e0b 123d 094e 94be 9efa db3d fc5e e73c
00000020: 3632 a2bd 7fc2 1bbd 2861 903c 7a4a 0a3e
00000030: 93c4 89be ea75 36be ad57 41bf 9426 543d
00000040: 2c82 45be ecd8 b4be c6d3 31be c366 73bd
00000050: bb1a 0fbe 4158 f2bd dac3 933e 0f2f 343e
00000060: 84f3 13be a513 cfbd 3666 cb3c 8d0b f9bd
00000070: 2d60 d4bd ff42 71bc 8f1f 123d 9056 f3bc
00000080: d3fe ed3d 7ebb a0be 9f74 523d fe50 843e
00000090: b38d 613e 7f77 cbbd b20f e8bd 070e 63bd
000000a0: c783 aabe 96a9 203e 3466 bf3d dc5a 52be
000000b0: 3ee5 1f3e c9c9 2e3d 50b3 cebe 74b2 9abe
000000c0: c2eb 24be eaa7 6cbe 8918 39bc 5485 b1bd
000000d0: 23cb d53d 2895 593c 2fc3 573e 97e8 1bbe
000000e0: e018 7cbe ca13 2b3d f090 82be afee 4cbe
000000f0: c794 313d 99a7 aebe 3365 1a3e ff64 7dbc
00000100: 16ff 7ebd 21e4 d13d 1c39 dbbd f8cc c2bd
00000110: 0aad 6dbd 6c1c cd3d 3de7 053e f4f5 09be
00000120: 5227 113e 822b 14be 4af5 eb3d 3341 71bc
00000130: 5a29 cdbe 747e ffbc 8478 653c 0b94 493d
00000140: 9964 25bd c01f 60be da53 ad3d 758e 9a3e
00000150: a0ce 8fbe 456c d13d e897 a9bd 8da4 38be
00000160: 2d09 04be da11 15be b209 96be b0d2 5abe
00000170: 7c4f 99bb 174b d5be 6b67 68be a1fa 073e
00000180: 8f76 123d 2a24 413e 2991 393b e99a 963d
00000190: 9175 99bd a05e 22bd 01a5 8f3d 3e9f 1f3e
000001a0: f109 843d e96b 23bc 88ae ecbd ce57 3e3e
000001b0: 3778 6a3e c192 52bc 72f5 e13c b4db 003e
000001c0: a7c8 62be 701f 033e 9fcc 8cbe 0e24 a5bd
000001d0: 479b 32be f99a 40bd b26a e8bd 2b50 5f3e
000001e0: ba3d fa3c 4bbf 913e f407 b13d 4d59 a9bc
000001f0: 8ac4 35be ce83 22bd 620c cbbd 6ca3 443e
00000200: 8db2 90be fdf3 67be 6f25 9d3e 280d ecbd
00000210: 0d3f 1c3e b86c bb3d 6118 493e 3bb4 b73d
00000220: 722a f3bd 7ca7 a5bc 6b2a cabe 564b a13c
00000230: 8410 01bd 0ac4 423e e276 25be 5e46 9b3d
00000240: 0236 4dbe da03 74be 0c3d ffbe 23ab 98be
00000250: 5925 433e 952e 14bd cb62 173e 5f8d 1dbd
00000260: b627 d5bd 6fc5 593e bb46 273d a211 9f3d
00000270: 579d edbe f20f bebd 41f9 a4bd d433 173e
00000280: dd27 7cbd f42a 01be 529f 3cbe ef24 4ebe
00000290: cd4c d5bd ac9e 5abe 3278 a53e 7a68 313d
000002a0: b2cd 6f3e 61d1 273d 3fc1 7fbc 7027 383e
000002b0: 602a a33d 8969 00be 44bb 51be e889 af3e
000002c0: 7473 0bbd d5f4 c6be 8466 e1bb a799 cf3d
000002d0: ad41 eb3d a539 0dbe 4dae 143e 67cc da3d
000002e0: e2b1 16be 7d82 733e ea82 41bd 90ad c3be
000002f0: 188b c43c 9011 d83c 9547 dd3d df53 cabe
00000300: d788 f7ba 6b15 f0bc 00bd 703d b443 253e
00000310: c714 9bbe 97f1 ce3d 0517 74be c5fe 493d
00000320: 02ba 14be 7a02 88be db55 88be b156 52be
00000330: a8b2 403d f62d 5ebe fdf8 d2be a0ac bbbb
00000340: b633 f1bd 2ed7 103e b194 f7be 7d5a 8abe
00000350: 406a 05be 8508 ffbd b21a 693d 4460 453c
00000360: e2cd 82be 362c e63d 10e7 443c b3a8 413e
00000370: 3321 8b3d a428 993c c195 c33c 236c 78be
00000380: 3862 04be e896 51be a0d1 983c 5841 d2bd
00000390: c23d 40be a4e9 bc3c 6ca8 5e3e 1907 83bc
000003a0: e8c9 403d ccf5 9d3d 8474 56be 73a7 4abe
000003b0: 86f2 353e 90b8 0ebe ae36 afbc a051 b73c
000003c0: f5a0 77bd 5d63 8dbe 578f eb3c 8470 26be
000003d0: 16c8 51bd 7592 b3bd 3439 d13d 9bce 6fbe
000003e0: 0672 91bb ddb9 80be e56b d03c 1411 47be
000003f0: f877 98bd 107c 94be 4a69 893d f99e 49be
-0.17274518 -0.16600049 -0.43202868 0.0525184 0.03565543 -0.28965786 0.10741161 0.028243534
-0.07919733 -0.038027283 0.017624453 0.13504973 -0.26907787 -0.17818418 -0.7552441 0.051794603
-0.19287938 -0.35321748 -0.17365941 -0.059424173 -0.1397504 -0.11833239 0.2886036 0.17596076
-0.14448363 -0.10111169 0.024829011 -0.12160406 -0.103699066 -0.014725446 0.035674628 -0.029704362
0.116208695 -0.31393045 0.05138075 0.25843042 0.2202671 -0.099349014 -0.11331119 -0.0554333
-0.33303663 0.15689692 0.093456656 -0.20542473 0.15614793 0.042672906 -0.4037118 -0.30214274
-0.1610556 -0.23110929 -0.011297354 -0.086680084 0.10439136 0.0132801905 0.2107055 -0.15225445
-0.24618864 0.04176692 -0.25501204 -0.20012926 0.043354776 -0.34112242 0.15077667 -0.015465974
-0.062254988 0.1024859 -0.10704252 -0.09511751 -0.05802635 0.10015187 0.13076492 -0.1347273
0.14175156 -0.14469722 0.115213946 -0.014725017 -0.4007061 -0.031188227 0.014005784 0.04921345
-0.04037914 -0.21887112 0.08463259 0.3018681 -0.2808733 0.10225729 -0.08280927 -0.18031521
-0.12894125 -0.14557591 -0.29304272 -0.21369433 -0.0046786647 -0.41658852 -0.22695701 0.13279201
0.035757598 0.18861452 0.0028315282 0.073537655 -0.07493127 -0.039641023 0.07013894 0.1558809
0.06447209 -0.009974458 -0.11556727 0.18588182 0.22897421 -0.012852372 0.027582858 0.1258381
-0.22146855 0.12804961 -0.27499864 -0.080635175 -0.17442046 -0.047022793 -0.113484755 0.21807925
0.030547012 0.28466257 0.08644095 -0.020672465 -0.17750755 -0.03967648 -0.09914471 0.19202965
-0.28261223 -0.22651668 0.30692622 -0.11525947 0.15258427 0.09151596 0.19638206 0.08969923
-0.1187333 -0.020221464 -0.39485487 0.019689243 -0.03150989 0.19020095 -0.16158631 0.07581781
-0.20040134 -0.23829594 -0.49851263 -0.29818067 0.19057216 -0.036177237 0.1478378 -0.0384649
-0.10407965 0.21266721 0.04083894 0.07767035 -0.46409103 -0.09280385 -0.08055354 0.14765865
-0.061561454 -0.12614042 -0.18420151 -0.20131277 -0.10415039 -0.21349591 0.32318264 0.043312527
0.2341831 0.040971164 -0.015610038 0.17983794 0.07967067 -0.12540258 -0.20481592 0.34284902
-0.03404565 -0.38858667 -0.006878676 0.10136729 0.11487136 -0.13791521 0.14519615 0.10683518
-0.14716294 0.23780246 -0.04724399 -0.38218355 0.023992106 0.026375562 0.10804669 -0.39517114
-0.0018885386 -0.029307088 0.058773994 0.16139108 -0.3028929 0.10104673 -0.23836906 0.049315233
-0.14524081 -0.2656439 -0.26628003 -0.20540883 0.04704538 -0.2169722 -0.41205588 -0.0057273656
-0.11777441 0.14144585 -0.4835563 -0.27022162 -0.13028812 -0.12452797 0.056910224 0.012046877
-0.255477 0.11238901 0.01201798 0.1891201 0.067934416 0.018696137 0.02387512 -0.24260001
-0.12928092 -0.20467722 0.018654644 -0.102663696 -0.18773559 0.023060627 0.21743935 -0.015994595
0.047067553 0.07712898 -0.20942885 -0.1979044 0.17768297 -0.13937593 -0.021388378 0.022377789
-0.060456235 -0.2761487 0.028754873 -0.16253859 -0.051216207 -0.08768169 0.10215989 -0.23418657
-0.0044386415 -0.25141802 0.025442073 -0.19440109 -0.07444757 -0.29000902 0.067095354 -0.1968955

weight f4 [256, 512]
00000000: 2e11 413d 29fb dd3d ea31 663b 84af c53d
00000010: a2b3 073e f8a1 4dbc 39ae e23d 512b 95bd
00000020: 67fe 9cbd 8880 20be 1a9b e23c 6c55 a33e
00000030: c20e d4bb 68e5 073b 450c c6bd ba78 4bbd
00000040: adc4 81bd cc3a d0bd 5fe9 1cbd 2be0 693e
00000050: 5b67 33be 3ea8 06be 6aa2 a1bc 4afc 523d
00000060: e367 59be 5a3a 8a3c 9259 893b 74c8 573e
00000070: e1a7 0bbd 7c4b 2f3e e75d 6f3c 3008 7cbd
00000080: faf0 ce3d 939c df3c 29da b0bd 9dda 033e
00000090: c8cb bdbc 1a7d d93c 6508 c5bd 0fba 6fbc
000000a0: aa62 363e 3f05 90bd 3976 9f3c 3340 c53d
000000b0: 2b7c ca3d 23dd ccbc e475 443d 545b 13be
000000c0: f324 4c3e 0138 01be 7cc6 803d c5fb d23d
000000d0: 92d3 7e3c 34d3 03be e7ab cabd 56c3 3d3e
000000e0: 1d15 103d 2802 b4bd 6407 fb39 1176 4c3e
000000f0: d5c3 52be 1d97 aabc c621 92be ca49 b93d
00000100: c074 8cbd 69c6 953d 9f0e 323d 2575 99bd
00000110: e24e 78bd 2471 2dbe 8f89 103e a6a8 adbc
00000120: 5ad4 90bd a894 42bd 8df6 28bd 3b1f 1c3d
00000130: 8757 aebd 3668 46bd 674b e8bd 527c 18be
00000140: 2fcc d8bd 2676 76bd 7d81 dcbd 44f3 e23d
00000150: 7ff7 fdbd fa46 b83c 018d 0c3e 0395 183e
00000160: 78b0 6c3e d77d 09bd 771a 3dbd 6ccf 17be
00000170: 2234 79bc 5594 863d ca1b e73c cd7f 00bc
00000180: 121a 0a3e d68c e1bc fc84 633d ab3c 3cbd
00000190: d06b eebd 3328 cd3d 064a 8fbc f0d5 87bd
000001a0: b91a a3bd 0746 bcbd 37d7 39be 892f 55be
000001b0: b46e 8fbd 09e4 e63d 4952 57bd 1f06 6abe
000001c0: aac0 973b d2b1 2dbd 0ff2 abbc c13b 283c
000001d0: 84a0 4b3c 242c 303d 00c7 49be 7fc2 9fbd
000001e0: bba2 20bc 2d9c ff3d 6340 923c d34f 2f3d
000001f0: 3528 14bd 79f0 323c ca05 58be e1da 7dbd
00000200: d529 713d 3737 7bbd 4b9c 643b 1b9a abbd
00000210: d041 41ba b222 e53d 2962 01be 3e07 b7bd
00000220: e927 7abe 7f38 c9bd 35ba 24be 6db9 103d
00000230: dd35 85bc ab62 3ebd a888 343e 7884 093e
00000240: 4e1a 463d ae3a f03d 7337 88bc 2584 0ebe
00000250: 6c5f df3d 2246 46be e36d 36be f31a 143e
00000260: fb99 313c 5185 d23d faca 5d3b 95f8 2dbd
00000270: 4287 e4bd 4cdd 7f3c d380 0fbd 6d3f 23be
00000280: 7851 f0bc 80a9 1a3e e80a fe3d d2d8 1f3d
00000290: b35c 1d3e df9d ea3d e8e3 b5bd 5b80 38bd
000002a0: 7039 a63d f4e8 243e 894c 1cbe 7e2f ffbd
000002b0: 8a0d 6d3d 499f 1d3b 0e7e 513d b6b2 eb3d
000002c0: 8c66 1e3d 8135 a93d 0c5e c8b9 6c32 193e
000002d0: 3b4d f33d 2f8b a03d ec9b 67be b630 cdbc
000002e0: a73a 97be fef8 513e 2fb6 d23b 413b adbc
000002f0: 3e7c c33a 9956 673c e948 ae3d 8378 fd3d
00000300: e733 18bd f277 dd3c 4dc5 c7bb 5424 89bd
00000310: 0cb8 733e 7ebb 01bd 2b0d 0ebc ad13 4f3d
00000320: d51e b2bd 1f2f fd3c 0862 d23d 635a 773e
00000330: 1853 b33e 47aa df3d c84c b9bb 17d0 a5bd
00000340: c129 053d 7a99 043d b1cc f4bd 56d9 d9bd
00000350: 3770 d3bd 3508 c63d 8e52 71bd 801a 97bd
00000360: 14bd 593d d84c 8d3d 3427 3f3e 87be d73d
00000370: a673 ab3b d159 f33a 4bae aabd 4c8f 663e
00000380: 7c50 be3c 1fa1 963d 1446 623d 5a50 07be
00000390: e300 2cbd eae0 b03c 3ad0 abbd 18c8 6c3c
000003a0: 993c 7a3d c791 543e daf1 5abd dbce 4c3d
000003b0: 4842 c63d 17a5 50be e0f9 b3bd 8ea6 193d
000003c0: 025b 18be 2ba0 e23b 7e77 50be 6aa6 ccbc
000003d0: 43a5 dbbd 92a4 01be 6bc1 0b3e 9e7b e1bd
000003e0: b969 e73d 578e 043d afa3 81bd 8b78 c1bc
000003f0: 371b 643d 9434 b238 812c bbbd 1cf6 dcbc
0.047135524 0.108389206 0.0035124966 0.096526176 0.13252118 -0.012550823 0.110683866 -0.072836526
-0.07665711 -0.15674031 0.027661849 0.3190111 -0.006471486 0.0020736102 -0.09670309 -0.04967568
-0.06336341 -0.101674646 -0.038308498 0.2283942 -0.17519896 -0.13150117 -0.019730765 0.051510133
-0.21231036 0.016873527 0.004191586 0.2107256 -0.03409565 0.17118639 0.01460979 -0.061531246
0.101045564 0.02729634 -0.08635361 0.12876363 -0.02316846 0.02654891 -0.09620742 -0.014631762
0.17811075 -0.070322506 0.019465553 0.09631386 0.098869644 -0.02500779 0.04796399 -0.14390308
0.1993597 -0.1261902 0.06287858 0.103019275 0.015553372 -0.12873536 -0.09896069 0.18531546
0.035176385 -0.08789474 0.00047879957 0.19966914 -0.20582516 -0.02082401 -0.28541392 0.09047277
-0.06858206 0.07313234 0.043470975 -0.07493047 -0.060622104 -0.16937691 0.14114974 -0.021198582
-0.07071753 -0.04750505 -0.041250754 0.03811572 -0.08512788 -0.048439227 -0.11342507 -0.14891174
-0.1058582 -0.06017127 -0.107668854 0.110815555 -0.12400722 0.022494782 0.13725664 0.14900593
0.23114192 -0.033567276 -0.046167817 -0.14825219 -0.015210183 0.06571261 0.028211493 -0.00784297
0.13486508 -0.027532976 0.055546746 -0.045956295 -0.11641657 0.10017433 -0.017491352 -0.06632602
-0.07964081 -0.09193044 -0.18148504 -0.20818914 -0.07003537 0.11273963 -0.052568708 -0.22853898
0.0046311216 -0.04240591 -0.020989446 0.010268153 0.012428407 0.043010846 -0.19704819 -0.07800769
-0.009804423 0.1248096 0.017852968 0.042800736 -0.036171157 0.010921591 -0.21095958 -0.061976317
0.058877785 -0.061331954 0.0034883197 -0.08379003 -0.00073721725 0.11188258 -0.12635101 -0.08936928
-0.24429287 -0.09825229 -0.16086657 0.035333086 -0.016261036 -0.046480816 0.17630255 0.13429439
0.04836493 0.11729942 -0.016628003 -0.13917597 0.10906872 -0.19362691 -0.17815356 0.14463405
0.010839934 0.10279334 0.0033842907 -0.042473394 -0.11158611 0.015616726 -0.035034966 -0.15942164
-0.029335722 0.15103722 0.12404424 0.039025135 0.15367393 0.11455893 -0.0888136 -0.045044284
0.08116424 0.1610449 -0.15263571 -0.1246023 0.05787424 0.002405124 0.051145606 0.11508696
0.038672015 0.08262158 -0.00038217043 0.1496064 0.11879965 0.07839047 -0.22618073 -0.025047641
-0.29536936 0.20505139 0.0064304094 -0.021146419 0.0014914346 0.014119768 0.0851 0.123765014
-0.037158873 0.027034733 -0.006096518 -0.06696382 0.23800677 -0.031672947 -0.008670132 0.050555874
-0.08697287 0.030906258 0.10272604 0.24155574 0.35024333 0.1092115 -0.005654905 -0.080963306
0.032510523 0.03237293 -0.11953104 -0.10637157 -0.10324138 0.09669534 -0.05891662 -0.07378101
0.053158835 0.068994224 0.18667299 0.10534387 0.005232292 0.0018566196 -0.08334025 0.22515601
0.023231737 0.0735495 0.055242613 -0.13214245 -0.041993033 0.021591622 -0.083893254 0.014452003
0.061092947 0.20758735 -0.053453304 0.05000196 0.09680611 -0.20375477 -0.08787894 0.037512355
-0.14878467 0.006916066 -0.20358083 -0.024981696 -0.107248805 -0.12660435 0.13648002 -0.11009906
0.11299462 0.03236231 -0.06330048 -0.02361705 0.055690017 8.497495e-05 -0.09139348 -0.026972823

bias f4 [256]
00000000: 02a9 073d 8cbd 12be 868f 9bbe 0b1f 76bd
00000010: 3d05 d0be 4ad8 0abe b6af 52bd 74db 34bd
00000020: 3aac 05be 98bf d9bd a6ba 2bbe a27d 5bbe
00000030: 9987 9cbd 16ac 41be 73be 27be d0a6 11bd
00000040: f1c1 a6be 6ce6 acbd 3ca5 1ebe 6871 a9bd
00000050: 91eb 30be 8ef2 8abd 3718 21be 5df3 cbbd
00000060: 5797 26bd 2846 afbd aeb6 81be 61c7 b0bc
00000070: 9349 45be 4cd3 70bd d486 54bd 7249 8abe
00000080: 617b 8fbe e868 8cbe 5614 13be 61d9 88bd
00000090: d4a3 05be bf71 fcbd daad 51be f541 05be
000000a0: 3588 cabd 1eee b7bd 1ac7 adbe 08d9 0ebe
000000b0: fb7b 07be c436 87be 6a96 e5bd 26e3 45be
000000c0: 5073 05be 84c9 40be 8f19 c8bd 28c3 c2bd
000000d0: 97b5 84be 973e 8bbd 0b80 4fbe 7812 efbd
000000e0: cf54 2bbb b4c5 2ebe 89e5 66be 14dd 4cbe
000000f0: 479e c8bd c81d 3dbe 34e1 33be bfee ebbd
00000100: 679c b2bd 6b13 5abe 5a15 67bd d2c9 e2bd
00000110: 2778 08be 082a 9ebd 53ad acbc 4b08 22bd
00000120: 12fa 01be a99e 16be c66f 56be 6d55 38be
00000130: 8e8a bbbd e6f8 1abe fc35 80be 86f9 ecbe
00000140: c68e 06be 8dc8 44bd f85a 70bd 195c 17be
00000150: e6db 16bd 0907 07be cd37 9abc f617 83bc
00000160: 40b0 39bb 2daa 15be 540c 11be c80f 96bd
00000170: bd3b e7bd f58f dbbd 0885 5fbe e479 9dbe
00000180: 0790 26be eb2f 38be b8ba dabd f9f8 f5bd
00000190: c233 eebd 6f0f 96be d97a 3bbe 6c94 04be
000001a0: 2608 13be 254d 07be 2f5e 2fbe 954a 86be
000001b0: 403c 0dbe 34a7 afbd 22ec 70be 7af6 42be
000001c0: 49a1 71be ad54 89be 109e 473c 05b9 87bd
000001d0: 11f0 da3c 951e d0bb 0e64 ddbd 506b 25bd
000001e0: dfb3 61be 8c52 83be 951b 22be 4e36 86be
000001f0: d1c3 17bf 6f7e 02be 405d bbbd d328 94bd
00000200: 8bdc db3c 3313 37be 59b4 2fbe da43 02be
00000210: 92cc 86bd 93d0 0bbe 2542 24be a5b2 e5bd
00000220: bdb5 95bd 6451 dcbd 475f 83be bc4a 19be
00000230: 8cf7 81bd 592b e4be a313 293d d031 e2bd
00000240: e3b3 35be 7332 4bbe 2fed bbbd 368f 9abd
00000250: cea3 89bc 268d 993c 88a3 c9bd 9127 f6bd
00000260: 1766 5cbe 1ff2 1bbe 97e9 d6be 634c 05be
00000270: 8302 b2bd b6f0 5fbd 1f46 3ebd 977e 86bd
00000280: 1c5b 873c c322 5fbe db53 69bd 43a3 a8bd
00000290: a308 08be 6fa7 6cbe 52ef 45be 6e22 16be
000002a0: 1891 2fbe 27b9 eabe 7a46 2cbe 4537 abbd
000002b0: 574f 85bd e12a a7bd ea03 8dbe 8be3 d2bd
000002c0: d8cb 29bd eaf1 3bbe ebf2 96be e60b 0fbe
000002d0: da97 15be 1eae 55be dbe0 25bd c3f3 b0bd
000002e0: 6f8c e5bd 1fae 10be 52a5 56be 52e0 05be
000002f0: 7980 c2bd ea9c 77be ed79 36be 7823 56bc
00000300: f1b9 0ebe 9e2c 6abe 70d7 23be 5590 52bd
00000310: e2c7 c3bd d1d9 93be ab73 67be 368a 8cbe
00000320: 833c ebbd e3f2 70be 720d 86bd 90b8 a5bc
00000330: a7ac f1bc 22e2 dbbd c7e7 afbd 45f2 5abe
00000340: 52c2 c7bd 1be3 d9bd 4430 f8bd e330 15be
00000350: 3e46 eebd 95b9 8fbc 81fd 43be 3b60 7abe
00000360: 2a12 b4bd a31e 32be 578e 77be 1ae1 1cbc
00000370: 62ac 71be f54f b8bd 9bbf d4be 35e1 68be
00000380: 1bfc 73bc 6231 abbd 2526 7abe f535 babe
00000390: a9c6 7c3c bf2f 12be 094e f8bd 0d72 51be
000003a0: f1a9 3dbe 195b 28be aec6 87be 05d5 40bd
000003b0: 94e4 2cbe 01cb cfbd 9064 2abe 8cc8 49be
000003c0: a0e1 12be 8fb8 35be e5ca a4be 57cc aabd
000003d0: 7b9e ebbd ba7c 9abd 6679 bbbd 97c1 2dbe
000003e0: bdcd e5bd 34a1 72be ee89 2cbb 509a 29be
000003f0: a28f 73be f401 8dbd 537d 60be f449 0dbe
0.033120163 -0.14330119 -0.30382937 -0.0600882 -0.40628996 -0.1355907 -0.051437102 -0.0441546
-0.1305398 -0.10632247 -0.1677042 -0.21434644 -0.07643051 -0.18913302 -0.16381244 -0.035559475
-0.3256984 -0.08442387 -0.1549272 -0.08273584 -0.17277361 -0.06784545 -0.15731893 -0.09958527
-0.040671673 -0.08558303 -0.25334686 -0.021579446 -0.19266348 -0.05879526 -0.051886395 -0.2700916
-0.28023818 -0.27423787 -0.14363226 -0.06682087 -0.13050777 -0.12326383 -0.20476475 -0.13013442
-0.09889261 -0.08980964 -0.33940965 -0.13949978 -0.13230889 -0.2640897 -0.1121033 -0.19324932
-0.1303227 -0.18826872 -0.097705 -0.09509879 -0.25919792 -0.067990474 -0.20263688 -0.116734445
-0.002614308 -0.17067605 -0.22548498 -0.2000621 -0.09795814 -0.18468392 -0.17566377 -0.115201466
-0.08721238 -0.2129647 -0.056416847 -0.110736504 -0.13327084 -0.077228606 -0.021078741 -0.03955869
-0.1269305 -0.14708962 -0.20941076 -0.18001337 -0.091572866 -0.1513401 -0.25041187 -0.4628412
-0.13140401 -0.048042823 -0.058680505 -0.14781226 -0.036830805 -0.13186277 -0.018825436 -0.016002636
-0.0028333813 -0.14615698 -0.14164859 -0.07327229 -0.11290691 -0.10720817 -0.21828091 -0.30757058
-0.1626588 -0.17987029 -0.10680145 -0.120103784 -0.11630966 -0.2930865 -0.18308581 -0.12947243
-0.14358577 -0.13213022 -0.17125772 -0.26228777 -0.13792515 -0.08576813 -0.23527578 -0.19039336
-0.23596682 -0.26822415 0.012183681 -0.066270865 0.0267258 -0.006351302 -0.108100995 -0.040385544
-0.22041272 -0.25648916 -0.15830834 -0.26213306 -0.5928317 -0.12743543 -0.091486454 -0.07234349
0.026838562 -0.17878418 -0.17158641 -0.12721196 -0.065819874 -0.13653784 -0.16040857 -0.11215714
-0.073100545 -0.107577115 -0.25658628 -0.14969915 -0.06346044 -0.44564322 0.041278493 -0.11044657
-0.17744403 -0.19843464 -0.091760986 -0.075468466 -0.016801741 0.018744063 -0.09845644 -0.120192654
-0.21523319 -0.1522908 -0.4197509 -0.1301742 -0.08691885 -0.05467292 -0.04645359 -0.06567114
0.016522937 -0.21790604 -0.056964736 -0.08234265 -0.13284545 -0.23110746 -0.19329575 -0.14661571
-0.17145193 -0.45844385 -0.1682376 -0.08360151 -0.065092735 -0.081624754 -0.2754205 -0.102973066
-0.041454166 -0.18354002 -0.29482207 -0.13969383 -0.14608708 -0.20867202 -0.040497642 -0.08640244
-0.11208426 -0.14128922 -0.20961502 -0.13073853 -0.094971605 -0.24180952 -0.17819948 -0.01306998
-0.13938119 -0.22868583 -0.16000152 -0.051407177 -0.09559609 -0.28877118 -0.22602718 -0.27449197
-0.11486151 -0.23530154 -0.06545533 -0.020229608 -0.029501272 -0.10736491 -0.0858913 -0.21381481
-0.097538605 -0.1063902 -0.12118581 -0.1456943 -0.116344914 -0.017544547 -0.19139673 -0.24450772
-0.08792527 -0.173945 -0.24175392 -0.009575153 -0.23600915 -0.089996256 -0.41552433 -0.2274216
-0.01489165 -0.083590284 -0.24428613 -0.3636929 0.015428224 -0.14276026 -0.12124259 -0.20453663
-0.18521859 -0.16441001 -0.26518768 -0.04707815 -0.1688407 -0.10146142 -0.16639924 -0.19705409
-0.14343882 -0.17746185 -0.32186046 -0.08339756 -0.11504837 -0.07543321 -0.09154014 -0.1696838
-0.11220882 -0.23694307 -0.002632733 -0.16562772 -0.2378526 -0.06885138 -0.21922807 -0.13797742

weight f4 [128, 256]
00000000: cf8c d7bd 55c1 ee3c e5b6 31be b6bb 8f3d
00000010: 1d5c 183e 97b2 3c3e da9f 48be d22c debd
00000020: 8d43 19bd acbe 71bd a99c 1dbe 6a7b 67bd
00000030: 220c b63d efa9 d93c 6681 bd3d f7a0 9dbe
00000040: 2822 aabd 59b4 babd e5b7 7a3d 1eb4 b13d
00000050: ab20 26be 1ae2 34be 143e 9bbe 5ebb 31be
00000060: af2e 65bd f963 2fbd e4a6 343e d6d0 8dbe
00000070: 9422 b2bd 2fe4 743d ab36 98be 287a 9ebd
00000080: 61da b1bc f10f f23c 66f6 fc3c f649 d1bd
00000090: a2f9 9a3e e6fc 2abd 4fc2 a2be eb6e 163d
000000a0: 95e8 06be c016 173d 01ff a73d ef5d e6ba
000000b0: 562d 2a3d 0624 89bd 75a0 ae3d d9ae b43d
000000c0: 80f3 b0bd 2495 fd3d 91ef a33d 3158 063e
000000d0: 5503 6ebe bba1 72bc 0843 54bc 3e01 c23d
000000e0: 6085 953e 2495 22be 3f93 1ebe 8917 e53d
000000f0: e956 75be f985 77bd 7608 7dbe 2b2e 7e3e
00000100: b85b 2d3e 0c04 aebd 15d0 35bd 0cc2 ca3d
00000110: 9e3a bc3d e4e7 babe 8e49 593c 5844 72bc
00000120: c6ef 2dbd b05b 64be 5dc5 ecbd 7270 f8bd
00000130: b9bf 6abe b4f8 5cbd 9e2c 4d3d 4de4 4d3d
00000140: f50f dabd affd b4bd a449 f2bb 5be9 ed3d
00000150: b281 b2bc 9868 33bc ee13 113e 1d35 69be
00000160: ec09 233d e235 283b 6a01 65be 5940 81be
00000170: d45c 20bd 3e89 c2be c0f0 fa3c b50a 0e3e
00000180: 7d16 04be 5d57 cdbd c816 72be 680f abbe
00000190: eac2 19be 85d7 7f3e e766 cbbc 7463 b3bc
000001a0: cb42 8e3d 2d89 19bd fb69 bebd a55b a23d
000001b0: ed39 fcbd 1fd5 1e3e 8ccd cf3d 4d8d e13d
000001c0: a7b5 cbbe 3d5f 9cbe 6ed3 173c b493 313d
000001d0: 84b4 7d3d 375a cd3c cdca 19be e6fb ad3c
000001e0: 3d17 493e 3fd7 bcbd f53f 99be 5fc4 ac3d
000001f0: 0bfd 553e e275 aabe b521 8dbd b8db a5bd
00000200: 40a3 bdbe f3f5 3abd 9350 85be b630 4bbd
00000210: 78ea fcbe 10b7 bdbd ad45 133c 0f9c 60be
00000220: 5ef3 823c f535 0cbe 8b13 b9bb 09d5 503e
00000230: a170 bdbd fa0e c93d 2475 063e 076a 8dbe
00000240: 9cd1 9cbd 8ed5 aa3c 24a4 a3bc 453d 743d
00000250: 7b96 1a3d 3635 13be f909 16be 2d42 7b3d
00000260: f5c2 14be 2a76 db3d 9a02 c3bb 39f1 813d
00000270: 031f 19bd bd20 453e 8dff 27bd fdb3 36be
00000280: b427 353d 2f9f 883e 48d3 9abd fa32 babe
00000290: 7fc9 f93d ddcb b43c 3ec7 39be 2cc4 de3d
000002a0: c1ad 92be 3f61 4b3d 4b76 06bc 7c28 29bd
000002b0: 01ce 183e 0fd0 3fbe 611d 203d 0969 29bc
000002c0: eb11 64be f3c2 08be 102e 113e 0a39 b13d
000002d0: 7ad9 a83d 20c6 f13d a5b4 a53d 8b76 733d
000002e0: d525 f3bd 8f65 803d 10b4 21be e3c7 39bd
000002f0: fceb 5dbd 6189 d03d 96ea edbc b04c 683d
00000300: bade 613e cbe4 95be 5b5b ef3d ae3b 203c
00000310: d8b5 c33d 4a37 103d 72ee f73b 3041 4bbd
00000320: e1a8 243e 0313 bd3e 6996 c4ba e7cb 8a3d
00000330: 4572 e4be abab 9bbe fd65 4fbc daa2 583e
00000340: 4cdc 89be 2c09 6f3e b479 fdbb 3f4c be3d
00000350: 1f9c 24bd 52bf 9cbc 2379 c13d 5f3b ccbd
00000360: e92b 353e db1d 77be e1a8 963d 9c12 4a3b
00000370: 5dfe 873d 9ce9 67be 5a46 bebd ce6b a2bc
00000380: bbaa 743c a4b7 903d d3b2 27bc 330e ec3d
00000390: 4e58 20be 36a7 8bbd f678 c8bd 02e2 173e
000003a0: f9bb f83a 1733 40be f305 9fbd 802e 9dbd
000003b0: d80a cdbd abd6 bfbd 28c8 9dbd 4b8f a93c
000003c0: 1f87 cd3d 3ffb 593d 6c63 8f3d ff83 26be
000003d0: 58fe 313e da3b 0a3e b95d 15be 5fa0 08be
000003e0: ab1f 37be 1a6e 0b3d 244c 20be 05c0 b7bc
000003f0: 282a 8e3e c9d3 35bd 118c de3d a937 33be
-0.10524904 0.029144922 -0.17354925 0.07018225 0.14878888 0.18427502 -0.19592229 -0.108483925
-0.037417937 -0.05901973 -0.15391792 -0.05651418 0.08889033 0.026570288 0.092531964 -0.3078687
-0.08307296 -0.0911643 0.06121053 0.08676933 -0.162234 -0.17664376 -0.303208 -0.17356631
-0.055952724 -0.04281995 0.17641789 -0.27698392 -0.086980015 0.059787925 -0.29729208 -0.07738143
-0.021710576 0.029548617 0.03087921 -0.10219185 0.3026858 -0.04174509 -0.3178887 0.036726873
-0.1317466 0.03688693 0.08202935 -0.0017575602 0.041547142 -0.06696324 0.085266985 0.08822412
-0.08640194 0.12381962 0.08004678 0.1311958 -0.23243459 -0.014809067 -0.012955435 0.09472893
0.2920332 -0.15877205 -0.15485857 0.111861296 -0.23958935 -0.0604305 -0.24710259 0.24822299
0.16929519 -0.08496866 -0.044387896 0.09900293 0.09190868 -0.36505044 0.013262166 -0.014786802
-0.042464994 -0.22300601 -0.115610816 -0.12130822 -0.22924699 -0.05394812 0.05009138 0.050266553
-0.10647575 -0.08837449 -0.0073940326 0.11616775 -0.02179036 -0.01095023 0.14167759 -0.22774167
0.039804384 0.0025666882 -0.2236382 -0.25244406 -0.039151028 -0.37995332 0.030632377 0.13871272
-0.12899204 -0.10026429 -0.23641503 -0.33410192 -0.1501576 0.24984558 -0.024829341 -0.021898009
0.069463335 -0.037484337 -0.09297558 0.07927636 -0.12315736 0.15510987 0.10146627 0.11013279
-0.39787027 -0.3054141 0.009266717 0.04335375 0.06193973 0.025067432 -0.15018769 0.021238279
0.19637771 -0.092207424 -0.29931608 0.08435892 0.2089731 -0.33293062 -0.06891195 -0.08098549
-0.37038612 -0.04564471 -0.26038036 -0.049607 -0.49397635 -0.09263432 0.00898878 -0.21934532
0.015985187 -0.13692458 -0.0056480817 0.20393766 -0.09249998 0.0981731 0.13130623 -0.27619955
-0.07657167 0.020853784 -0.01997573 0.059628744 0.037741166 -0.14375767 -0.14652242 0.061342407
-0.14527495 0.107158974 -0.005951238 0.06344838 -0.03738309 0.1925077 -0.041015197 -0.17842098
0.044227317 0.26683947 -0.0755983 -0.36367017 0.121966355 0.022069866 -0.18142411 0.108772606
-0.2864819 0.049653288 -0.008206914 -0.041298375 0.14922334 -0.18731712 0.039090518 -0.010339984
-0.2227246 -0.13355617 0.14177728 0.086534575 0.08244605 0.118053675 0.08091096 0.059439223
-0.1187245 0.06269371 -0.15791345 -0.045356642 -0.05418013 0.10182453 -0.029042523 0.05671376
0.2205762 -0.29276118 0.116873465 0.009779854 0.09556168 0.035208978 0.0075662667 -0.049622715
0.16080047 0.36928567 -0.0014998439 0.067771725 -0.4461843 -0.3040441 -0.012658593 0.21155873
-0.26925886 0.23343343 -0.0077354554 0.092918865 -0.04018795 -0.019134197 0.09446933 -0.09972262
0.17692532 -0.24132483 0.0735643 0.0030833846 0.06640313 -0.22647709 -0.09290762 -0.019826796
0.014933283 0.07066277 -0.010235506 0.11526146 -0.15658686 -0.06819002 -0.097886965 0.14832309
0.0018976919 -0.18769489 -0.077648066 -0.07674885 -0.10011834 -0.093671165 -0.077041924 0.02069821
0.10035538 0.053218123 0.07001385 -0.1626129 0.1738218 0.13499394 -0.14586534 -0.13342427
-0.17883174 0.034040548 -0.15654045 -0.02243043 0.27766538 -0.044391427 0.10866559 -0.17501701

bias f4 [128]
00000000: 33ff 5cbe 5ec6 b7bd ac29 31bd 014f eabd
00000010: 947b c4bd 2602 95bd df71 17be adb4 88bd
00000020: 9bf9 a3bd 7ee9 2ebe a385 0cbe 9cb3 f8bc
00000030: 650a 22be 9875 a8bd 9277 03be 3326 43be
00000040: efbe 0dbe 728d 10be f9b4 8cbe fba1 8bbd
00000050: f3d0 69bd a36b 0abd bc8c f2bd b539 0bbe
00000060: aca3 c2bd de6e 1abe 1b2a 3fbe 354c 2abe
00000070: 0d2c 20be 2f77 98bd 0739 04be bb16 c6bd
00000080: b559 61be 8573 31be e679 9cbe 2888 14be
00000090: dbc8 24be 5523 dbbd 47ec 89bd 5117 61be
000000a0: 264e 1fbe 0332 66bd 5cbb bcbd 0eae 31be
000000b0: f79b e6bd 8da0 e7bd e3c8 03be a5f6 cebd
000000c0: 62f4 92bd 9a0d 3dbe 7d4f bebd 99d9 f6bd
000000d0: 8925 04be afcd 1dbe 972d 80be 7c2f dcbd
000000e0: 5264 11be 278b 01bd f559 abbe 9c37 6dbe
000000f0: aaa3 10be 5c06 d9bd c96b f2bd 93ac 25be
00000100: de90 4abe cb87 a1be ef0b 06be 7872 e0bd
00000110: 219a 2ebe fec9 a1bd 91d8 fcbd 92a6 b3bd
00000120: 774b cdbd 67da 74bd b4ab 29be 0631 e4bd
00000130: 1d00 27be 695c 16be c361 b4bd 4964 60bd
00000140: eb3b c5bd 1eb8 f9bd c004 66bd 3a0e a3bd
00000150: 296a 9dbd 5a0e 06be 407e b4bd 6544 a7bd
00000160: a643 b6bd d764 f3bd 2b4a 1dbe 588a cebd
00000170: d965 1fbe 0942 05be c494 48bd d5d1 dcbd
00000180: d941 33bd 632c f1bd d627 81bd beed 94bd
00000190: 7cb6 d4bd 4c32 59be 92cb 15be 4d4a dfbd
000001a0: be8c 08be 3ca7 f0bd 4dcb 1bbe cb1d 06be
000001b0: 18b7 12be e9df 55be 0487 c6bd 1f46 18be
000001c0: d5ca 0ebe cfef 3dbe 6058 a7bd e532 d5bd
000001d0: 384a 92be 9a39 22be 0f28 abbd 29eb 0abe
000001e0: 6c0e 1cbd 7265 57be 4409 76bd 07ce 51bd
000001f0: a9d4 39be 0616 f2bd 485b d8bd 7306 00be
-0.21581726 -0.089733824 -0.043252632 -0.1144085 -0.09593883 -0.072758004 -0.14789532 -0.06675086
-0.08006593 -0.17081258 -0.13722853 -0.030359082 -0.15824278 -0.08225554 -0.12838581 -0.1905754
-0.13842367 -0.14116457 -0.2748182 -0.06818005 -0.057084035 -0.033794057 -0.11843249 -0.13596232
-0.09503874 -0.15081355 -0.18668406 -0.16630633 -0.15641804 -0.074446075 -0.12912379 -0.09672304
-0.22006877 -0.17329223 -0.3056175 -0.14505064 -0.16092245 -0.107000984 -0.067345195 -0.21981551
-0.15557155 -0.05620004 -0.092154235 -0.17351553 -0.11260217 -0.113099195 -0.12869601 -0.101056375
-0.071755186 -0.1846222 -0.09292505 -0.12053222 -0.12904944 -0.15410493 -0.25034782 -0.107512444
-0.14198425 -0.031626847 -0.3346707 -0.23165745 -0.14124933 -0.10596916 -0.11836965 -0.16179113
-0.19781825 -0.31548914 -0.1309049 -0.10959333 -0.17050983 -0.07899855 -0.12345994 -0.08772005
-0.100241594 -0.059778597 -0.16569406 -0.11142163 -0.16308637 -0.14683689 -0.08807709 -0.05478314
-0.09630569 -0.12193321 -0.056156874 -0.07961698 -0.07686264 -0.13091412 -0.08813143 -0.08167342
-0.08899622 -0.11884468 -0.15360324 -0.10084981 -0.15566196 -0.13013472 -0.04897 -0.1078221
-0.04376397 -0.11776044 -0.06306426 -0.07271908 -0.10386369 -0.21210593 -0.14628437 -0.109028436
-0.13334939 -0.117506474 -0.15214272 -0.13097303 -0.14327657 -0.20886196 -0.09693721 -0.14870499
-0.13944562 -0.18548511 -0.08171153 -0.10410098 -0.2857225 -0.15842286 -0.0835725 -0.13566269
-0.03809969 -0.21034792 -0.06006743 -0.051221874 -0.1814753 -0.11820607 -0.105642855 -0.1250246

weight f4 [12, 128]
00000000: 69b4 daba 03af 8aba 9afd 55bc 9db7 f8bc
00000010: 7e23 5fbc 5552 d8bc e61b 2bbd 764e 7e3d
00000020: d8b7 75bb 39b3 c53b 258c b9bc 6a2d e33b
00000030: 7ab8 f1bc 0e0d fa3a d312 6fbb 748c 97bb
00000040: 61c2 a2bd 5d39 233d 3bb3 213d 2787 75bd
00000050: 61c5 d33c 61ba 9c3a d181 8bbb 3de7 493c
00000060: d56f 20bd 4ac5 e0bc aee2 773c a697 773c
00000070: 311f 0cbb e2b4 273c 63f1 b2bc 1b31 533c
00000080: d27b ef3c 3e22 9dbc c512 4abc cc25 323c
00000090: c6bc 3e3d 96df 2abd e5e2 0c3d 4da1 ecbc
000000a0: 0208 3d3c 422c 98bc d31f 3dbd 2062 43bd
000000b0: 134a 243d 0f49 10bc 9fdf 47bc 5f64 8d3d
000000c0: 3ebf 643c c8cb c6bc 8694 71bc b7ed 213c
000000d0: 2d9c 31bd 8ca2 9f3d 8996 cd3c 6f1e babb
000000e0: bc96 bdbc 8b0b fd3c f0f2 1ebd 4e7d 8b3c
000000f0: c39e b73c 2217 2c3d aa91 973b 7dff c0bc
00000100: dabb adbc 87d4 0f3d 12b7 24bd 5b7e 883d
00000110: 5f0b 173b 1114 89bc e932 093d 49bc 523c
00000120: 4c1c 753c 2f56 3c3d b1a1 06bd 3fea 20bc
00000130: de7c 8ebd a32f d9bb 13bf 8fbb a969 ad3b
00000140: 9032 62bc bd31 a4bb f57b 9a3b d196 833c
00000150: 579a 963d 5623 47bc 163a 19bc 3052 1a3d
00000160: e45b 6d3d 79dd 7bbc cf3b 89bc 3abe e33c
00000170: 9368 963d bb26 c5bd 2c7b bd3c 27ea 963c
00000180: 3c74 403c cbb8 ff3b 5072 393d 84bf 54bc
00000190: 958b 6abd 1d0a 033c 0446 09bb 4bbd f53c
000001a0: 0f2b 56bc 34a2 2dbc a4ce 5c3d 8642 8c3d
000001b0: f256 9a3c 5e21 63bd 63ba 25bd dffc f9bc
000001c0: f49a 423d 8b4a bfbc bf49 e73c 3bc4 a83c
000001d0: bdd7 883c 4a2e 9e3c eb59 a13c 14c7 81bd
000001e0: d7ff 043c 38ad aebd b681 3e3c 33d5 79bb
000001f0: 217f 3d3c 01dc 88bc 3567 1bbc 0bf3 b238
00000200: 1241 aabc 4cd7 893c 7a1b 51bd 0700 c23a
00000210: 629b 753c caee 1a3b 3190 ee3c ded6 043e
00000220: 0721 1f3d e7c9 9c3c 7517 443c 19d7 933d
00000230: e9ac ffbb 25e1 06bc 7165 20bd 6aef 4abd
00000240: 4f7d 063e e12e 873d 59d4 9d3d 01ff bdbd
00000250: ae66 763d 17b0 7abd 5d63 96bc 65c7 eebc
00000260: 4fbf 95bc bed4 743d f3db 33bd e105 d1bb
00000270: 31a3 fb3c 3fb9 5ebd 47f5 e83d 4a9a 793d
00000280: 5167 0a3d 1ea3 03bc c3da 2d3c 95bd 023d
00000290: ef8c 1d3d 48e2 0ebd 9cce afbc 77ed 45bc
000002a0: 5e78 efbc 0b26 aa3b cb7a 023c 67e6 513d
000002b0: 0cfc 8d3d 01ea 38bb 6e91 23bc fc95 a6bd
000002c0: fd84 2bbb 22a9 163c 2a9e b33c 16fa 293c
000002d0: 07d9 5d3c 1137 e5bc d556 5cbc 0518 363d
000002e0: 7c4e 963d ac2b 0ebd 3323 f9bb c8c5 283d
000002f0: 2d3d 113d ce4e e7bc 111c 903b d096 203c
00000300: dbbc 463d 30c9 0d3c 599b d6bd a0b4 24bc
00000310: efc2 9ebc 89eb 3ebd 55a6 183c 9155 9abd
00000320: fb54 ccbc 9919 0fbd 8d37 0a3d e91b 45bd
00000330: 2814 9bbc 2636 063d 5c64 0e3d 7147 40bd
00000340: 3c7f bebb 08ea 7ebc 000f 8bbc a268 44bd
00000350: 6e28 a63c 7c82 f2bc 6047 25bd 6e6a e13d
00000360: 534f 783c c180 8ebc d82e 72bd 6285 1e3d
00000370: 9b5e 06bd ef89 9e3c 4ce3 82bc 98a3 593d
00000380: 1d65 823c 6aa9 7e3c a7e9 ed3c 25f1 113d
00000390: 7dc6 4cbc b2e9 bcbd b3bf e53c 93ad 67bd
000003a0: 45b8 a7bc 149a 30bd b58b 563d 0b41 b13c
000003b0: bd56 343d 4536 6dbd 4a2e f7bc 05d3 dbbc
000003c0: b621 f13a eeef 293d 00b6 4e3c f072 313d
000003d0: 8076 09bd ca75 f6ba fef3 313c 0d97 e8bb
000003e0: 3a4c 01bc f14a 983d 0231 c93c dab3 89ba
000003f0: 2645 4d3d c0f9 a8bd 5bba d63c bead 81bd
-0.0016685846 -0.0010580722 -0.013060952 -0.030360991 -0.013619302 -0.026406446 -0.041774653 0.062086545
-0.0037493613 0.006033328 -0.022649834 0.006932904 -0.02950691 0.0019077377 -0.0036479726 -0.0046248976
-0.07947231 0.039849628 0.039477568 -0.059943344 0.025850954 0.0011957401 -0.0042574187 0.012323198
-0.03916915 -0.027437825 0.015129728 0.015111839 -0.0021380896 0.010235997 -0.021843618 0.012890126
0.029233847 -0.019181367 -0.012333577 0.010873269 0.046566747 -0.041717134 0.03439607 -0.028885508
0.011537554 -0.018575791 -0.046172928 -0.047701 0.040109705 -0.008806481 -0.0121993115 0.0690391
0.013961611 -0.024267092 -0.014744883 0.009883336 -0.04336183 0.07794675 0.025096195 -0.0056798975
-0.023143165 0.030889293 -0.038805902 0.017027523 0.02241457 0.04201425 0.004625519 -0.023559326
-0.021207739 0.03511479 -0.040213652 0.066647254 0.002304755 -0.016733201 0.033495817 0.0128622735
0.01496036 0.04598063 -0.032869045 -0.009821474 -0.0695741 -0.006627993 -0.0043867915 0.0052921367
-0.013806 -0.005010812 0.004714484 0.016063126 0.07353657 -0.012154421 -0.009352228 0.037676036
0.05794896 -0.015372627 -0.016752152 0.027800668 0.07344165 -0.09626528 0.023130022 0.0184222
0.011746462 0.0078040115 0.045275033 -0.012985114 -0.057262022 0.007998017 -0.0020946274 0.029997488
-0.013071789 -0.010597754 0.053908005 0.06848626 0.018840287 -0.055451743 -0.040460955 -0.030516086
0.047511056 -0.023350975 0.028233407 0.020601382 0.016704435 0.019309182 0.019696197 -0.06336799
0.008117638 -0.085291326 0.011627605 -0.0038121461 0.011565954 -0.016706469 -0.009485056 8.532972e-05
-0.020782981 0.016826294 -0.051051594 0.0014801034 0.014990659 0.0023640865 0.02912149 0.1297259
0.038849857 0.019139243 0.011968483 0.07218761 -0.007802595 -0.00823239 -0.039159242 -0.04954473
0.13133739 0.06600738 0.07706518 -0.09277154 0.060156517 -0.06120309 -0.018357927 -0.029147813
-0.0182797 0.0597732 -0.04391093 -0.0063788746 0.030717464 -0.054375883 0.11374908 0.060938157
0.033789936 -0.008034496 0.010611239 0.03191908 0.038464483 -0.034883767 -0.021460824 -0.012080542
-0.0292322 0.0051925234 0.007963846 0.05124512 0.0693284 -0.002821565 -0.009983404 -0.08134076
-0.0026171796 0.009195598 0.021926004 0.010374567 0.013540513 -0.02798036 -0.013448437 0.0444565
0.073391885 -0.034709617 -0.007603073 0.041204244 0.035458732 -0.02823582 0.004397877 0.0098015815
0.04851995 0.008653924 -0.10478849 -0.01005283 -0.019380061 -0.046611343 0.009317 -0.07535852
-0.024942866 -0.03493652 0.033744384 -0.04812232 -0.01893051 0.032766484 0.03476368 -0.04694313
-0.0058135074 -0.015558727 -0.016974926 -0.047951348 0.02028295 -0.029603235 -0.04035127 0.11006628
0.015155631 -0.017395379 -0.059126705 0.038701423 -0.032805067 0.019352881 -0.015977524 0.05313453
0.015917355 0.015543321 0.029042078 0.035630364 -0.012498495 -0.09224261 0.02804551 -0.056562018
-0.020473609 -0.04311569 0.05237933 0.02163746 0.044028033 -0.057913084 -0.03017344 -0.02683402
0.0018396887 0.04148858 0.012616634 0.043322504 -0.033560276 -0.0018803414 0.010861395 -0.007098085
-0.007891709 0.07436169 0.024559502 -0.001050587 0.050114773 -0.08250761 0.026211908 -0.06331967

bias f4 [12]
00000000: fb28 243d f1e4 893c 1fa6 85be 87b8 57be
00000010: 34b2 5a3e f301 26be da92 49be 18c4 e1bc
00000020: 99f4 1ebd baaa dabd 79ed 3bbb 3928 88bc
0.040078145 0.0168328 -0.26103303 -0.21066485 0.21357042 -0.16211681 -0.19684926 -0.027559325
-0.038807485 -0.10677095 -0.002867548 -0.016620742

weight f4 [128, 270]
00000000: 9ad6 e33b ac31 6cbd 2e31 323e 7da7 6cbd
00000010: 4066 04bd 9e78 66be 5698 7fbd eef1 d63d
00000020: 7c7a f73e 5650 8fbf 0a05 503f e382 a0bf
00000030: d9e1 c1bd 27a1 93be ae43 b23e 1bf1 653e
00000040: 75c4 04be ccea a33d e7de 13bf d036 4b3e
00000050: b4d4 46bd f95f edbd 8537 02be c54d 013f
00000060: 755d 4fbc ea41 a93d bca6 c43d 98b8 02bd
00000070: 2f51 4d3d e5e1 e3bc 140e 06be 7aa2 7ebd
00000080: 1007 78bd b8cb 76bd 28cf 873c 2afd 043d
00000090: 750c 91bc e696 a53b 22b6 69bd a789 10bc
000000a0: e20e 6bbc dbde d23a be57 13bd e071 32bb
000000b0: 75c0 9b3c 092b 93bd e6d8 61bd d25c 6d3d
000000c0: 217e c0bb 8df9 96bd b171 973d 0b98 9f3d
000000d0: 7ce6 d63d da78 a03e 753e dabe d536 6d3d
000000e0: b8b5 acbd b2da 5f3c def3 15be 7880 6b3e
000000f0: 4fe0 b53c d58e fe3c ce93 4e3d 1238 80bb
00000100: 1ed4 19be c508 6ebc 2c8c 87bd 733e 8c3c
00000110: 5fac e1be 5314 13bd ce6b 8e3d a4db f33d
00000120: 4f89 11bd c46e a73d e507 723d aa23 b13d
00000130: 90e5 afbc 3e1b 833b 4dd5 febc 4370 9fbc
00000140: e438 843d e2c9 363b 70c8 733c 9eed 7fbd
00000150: 32a4 963b 8a04 3dbb 268e febc 4340 313c
00000160: 5c99 c1ba 505b c6b8 5307 1fbd dac0 e5bc
00000170: 7365 883c d019 dcbd deb8 93bd 2f67 cf3d
00000180: 9570 a43d 3c8d 473e 2e86 553e 5841 993c
00000190: 959e 29be f0da c03e 14c1 cebc aefd 6b3d
000001a0: ddd4 aa3d bd3a c2bd 589b 953d d043 79bd
000001b0: 2ecb c53d 8378 c5bd 55ec 1cbd 624e 28be
000001c0: 6bfb 8bbd d893 0fbf d2f3 a7bd edc7 1c3e
000001d0: 6abf fd3d 3037 a3bd a821 3d3c 6a9a 753b
000001e0: a8c0 983d 49ff cabc 2b3a 15bd fab4 b6bc
000001f0: 515f a2bc 9774 7e3d 4f3a 1dbb 7d74 823b
00000200: ddaf f4bc 2656 e0b6 bf8a e9bb 607d 2ebc
00000210: 4e68 6d3c dd4a 3eba f911 00bc cc24 a83d
00000220: 3c8c 9d3d 0090 89bd dc6c a2bd 7260 3dbd
00000230: 7768 8e3d 0535 6f3d 8d94 033e 9b7b 393e
00000240: f9be 8b3e f866 e43a 386b 573e f906 4abd
00000250: 3249 263e 65ee 943d 6bd3 e9bd b0fc 7a3d
00000260: c07b 8abd fcaf 753d 1a79 e9bb 29b8 79bd
00000270: 6368 ecbc 0245 c139 c220 86bd d1b5 10bd
00000280: 5723 dc3d bfdd 8d3d 2919 b5bd 3377 2ebd
00000290: 57c1 44bc 8f27 473d e521 76bc 1f6c 0ebd
000002a0: a213 35ba b322 54bc 44fa 333d 083e 12bb
000002b0: fbec efbb 9b31 29bc 0be2 40bb 652b 1abc
000002c0: aa1f 57bb a596 853c 414c 2cbc 360e 1fbc
000002d0: 97cc 873c b37a 0b3d 51dd 99bd 4210 13bd
000002e0: b864 233d 085f 9e3c 5053 8e3d 9aa7 ba3d
000002f0: 7ed0 833d fc84 3b3e 6f20 523e b133 253d
00000300: 3c1c 6fbd 0cad c53d 81f8 5f3d d9c7 f3bd
00000310: 640e f73c 73d0 0f3c ad8f 263d 4811 983d
00000320: 62a5 013c e217 b63d 0673 e73d 59aa c73d
00000330: d2b3 eabc fe57 f43b 9273 343d e4e9 90bd
00000340: 4f90 87bd 05d5 84bc d379 fd3c c137 093d
00000350: b751 023c 08ca 153c 7446 1dbc 8822 083d
00000360: 43d2 793b 1038 92bb 0eb2 46bc d66c 5a3a
00000370: 592e 4ebb fb41 c13a b8f8 393c 288f 92bc
00000380: cf85 0ebc d7f7 db3d 69c3 3d3d 8f15 df3d
00000390: 73b5 d63c 0c2a 113e aa9b 0bbc ba10 7f3d
000003a0: 3100 513d ef2e 553d 747b 043e 397e 853e
000003b0: 67fa dabb 92d5 d63b 457c 623d 4e8c 833d
000003c0: 7fd9 d4bd da71 10bc edbd 883b 6d9a 6d3c
000003d0: 9133 943d 6545 5bbc 0f35 f23c e216 643d
000003e0: d557 773d fc03 8cbc b069 bbbc 7703 3d3d
000003f0: d3c4 c83d 479e 003d bf18 a6bb fae5 7a3d
0.0069530727 -0.05766456 0.17401573 -0.057776917 -0.032324076 -0.2250695 -0.06240114 0.10495363
0.48335636 -1.1196392 0.8125769 -1.2539943 -0.09466905 -0.28833887 0.3481726 0.22455256
-0.12965567 0.08003768 -0.57761997 0.19845128 -0.048542693 -0.11590571 -0.12716492 0.5050929
-0.012656559 0.08264525 0.096021146 -0.031914324 0.05012625 -0.027817676 -0.13091308 -0.06216667
-0.06055361 -0.060252875 0.016578272 0.032468 -0.017706135 0.005053389 -0.05705846 -0.008821881
-0.01434681 0.0016088145 -0.03597235 -0.002722852 0.01901267 -0.07185943 -0.05513849 0.05794985
-0.0058744107 -0.07371817 0.07394732 0.07792672 0.1049318 0.31342202 -0.42625776 0.05791362
-0.084330976 0.013662981 -0.14643809 0.22998226 0.022201685 0.031073967 0.050433926 -0.003912934
-0.15022323 -0.014528458 -0.066185325 0.017119622 -0.4407682 -0.035908055 0.06954156 0.119071275
-0.03553134 0.08175424 0.05908956 0.086493805 -0.021471769 0.0040010503 -0.03110757 -0.01946271
0.064561635 0.0027891328 0.014879331 -0.06248247 0.0045972103 -0.0028841817 -0.031073641 0.010818544
-0.0014770436 -9.458384e-05 -0.038825344 -0.02804606 0.016649937 -0.10747111 -0.07212995 0.101271026
0.08029286 0.1948747 0.20851967 0.018707916 -0.165644 0.37667036 -0.025238551 0.057614975
0.08341382 -0.0948386 0.0730502 -0.060855687 0.09657894 -0.096421264 -0.03831132 -0.1643615
-0.068350635 -0.56084967 -0.08200802 0.1531064 0.12390025 -0.079695106 0.011543669 0.003747607
0.07458621 -0.024779933 -0.036432426 -0.022303093 -0.019820841 0.062122907 -0.0023991053 0.0039811716
-0.029869014 -6.685749e-06 -0.0071271355 -0.010650009 0.0144902 -0.00072590803 -0.007816785 0.082101434
0.07692763 -0.06716919 -0.079309195 -0.046234556 0.06953519 0.058400173 0.12849636 0.18113558
0.27294138 0.0017425707 0.21036994 -0.049323056 0.1623886 0.07272033 -0.11417278 0.061276138
-0.06761885 0.059982285 -0.007125032 -0.060966644 -0.02885837 0.00036863243 -0.06549217 -0.035329644
0.10748928 0.0692706 -0.088426895 -0.042594146 -0.012008986 0.04862171 -0.0150227295 -0.03477108
-0.00069075276 -0.012947726 0.043939844 -0.0022314806 -0.0073219514 -0.010326768 -0.0029431607 -0.00940976
-0.003282527 0.016307184 -0.010516227 -0.009707978 0.016577048 0.034052562 -0.07512916 -0.035904177
0.039890975 0.019332424 0.06949484 0.09113999 0.06436251 0.18312448 0.20520185 0.0403325
-0.058376536 0.09652147 0.05468035 -0.11903352 0.03015823 0.0087777255 0.040664364 0.07425171
0.0079129655 0.08891274 0.11301236 0.09749288 -0.028650198 0.0074567785 0.04405553 -0.07075861
-0.066193216 -0.016214857 0.03094188 0.033500437 0.007954053 0.009142406 -0.009599317 0.033236057
0.003811971 -0.0044622496 -0.0121274125 0.0008332258 -0.003146073 0.0014744395 0.011350803 -0.017890528
-0.008698895 0.10740631 0.046328936 0.10892784 0.026209569 0.14176196 -0.008521 0.06227181
0.051025573 0.052046712 0.12937719 0.26072863 -0.0066826823 0.0065562213 0.055294294 0.06423245
-0.103930466 -0.008816207 0.0041730315 0.01450215 0.07236398 -0.013383244 0.029566316 0.055685885
0.060386498 -0.017091744 -0.022877544 0.046145882 0.09803166 0.031400945 -0.005068868 0.06125448
